modlee_interview_data/traced_model.pt (torch, 267982 bytes, 10 tensors)

weight_ih_l0 f4 [256, 41]
00000000: 6dd7 e73d aae7 fd3d d6fd 503d 805a 5e3d
00000010: c85e 983c e16a 4cbd 3691 223e aced b03d
00000020: f9e5 823d 40bd 36bc 1432 293d 5268 9dbe
00000030: c719 873c df69 603d 542a 89be c7d9 39be
00000040: 0d78 d3bd 5812 55be d121 22be c4a2 1f3e
00000050: f2f8 abbd 517b 10bd db46 05be a556 e0bd
00000060: 678c 743d 9ab6 75bd 37cf 6e3d 3315 0bbe
00000070: 70b5 f33d 2c79 18bc e4f2 1cbe 5c9b b13d
00000080: 3adf 023f 1fc8 313d 08f3 17be b423 c0be
00000090: c9a6 33be 5fd6 c8bd 2b69 53be 4c28 fe3d
000000a0: 8bc5 28be 2d51 4bbc 5ee2 bcbd 78ba a2bd
000000b0: 3a89 adbc 5efe bbbd 4f97 44bd 09c0 f63c
000000c0: 5a0e 5fbd 2849 013d 28b0 efbc 8e08 e3bd
000000d0: 83e9 cfbd 0432 03be 18f3 563e 262a 193e
000000e0: f61b 703e 5d59 ffbd ac7a 9bbd e444 96bd
000000f0: 6950 95bd 0335 c3bc 92a6 f23d 6bbc d5ba
00000100: e155 5fbe 47e3 5bbe 9ce7 413d 378a ee3b
00000110: 6b53 8bbd d3c7 23be aa45 133c e532 893d
00000120: 6222 d2bc 1f69 6f3e f744 33be 53e7 d33d
00000130: 91a5 5e3e 9eb2 693e 8680 8f3d 6e87 3a3d
00000140: 846b 3f3e c55d 863d 1a07 593d 04ff 063e
00000150: 4947 ec3d 0972 c93d 5a22 803e 7c57 7e3e
00000160: 188a 263e 0144 fb3d 198b f23d 9c86 593d
00000170: 7adb c93d ffc8 823e 9fb6 553e 41f2 973c
00000180: 6104 20be 1fec 1bbe 66ac 143e 2a9a 753d
00000190: d914 963d 93da 73bd baf7 ee3d 62b8 7d3d
000001a0: 07ec 213e 1637 743e 27ca 49be a273 513c
000001b0: 2eb3 89bd 0567 4dbd 3e34 173d a747 fdbc
000001c0: a10e 733d 3128 563e 058b a5bd a901 fdbb
000001d0: bc5e c7bc bbb5 2bbd f565 493e d55e 223c
000001e0: 9daa 463c c28a d73c 9964 cbbd c6c3 07bd
000001f0: 1c1d 983d 4543 183e 612e e4bc 7424 4bbd
00000200: 9c75 223b 42fc 513d 6fbb 003e 98d6 853c
00000210: 0075 ae3c f821 85bc a6b0 113e f030 88bc
00000220: 3989 fc3d 6228 c23d 3b96 6a3e c37e 6bbc
00000230: 65e0 57bd 8cda 883d 69c6 a6bd febb 05bf
00000240: 9ffb 0ebe df41 c1bb 8afb ccbb 10ae d0bb
00000250: b5e1 ccbd 49fc d43d 9761 363e 3602 a93d
00000260: 92d7 183d 02a8 c3ba ec97 f5bd 3f6e 7abe
00000270: 0df2 a53e 07c0 47be 7bdb 6dbd d85d bb3d
00000280: 316b 0a3e a9e6 90bd 9b8e 5e3d 03d3 003d
00000290: d1cc b4bd 1c67 e93c c9e1 e1bc 9120 11bc
000002a0: 550c 72b9 4083 aabb 214d 983d f696 e9bd
000002b0: 99cb f73b 90f5 67bd 1483 fd3d c2c8 243e
000002c0: 8561 5e3d 5ad8 35bd d8ca 80be 7177 233e
000002d0: a578 9d3d 03c8 b93d 7f3c d5bd b74e 20be
000002e0: 30c9 9e3c bd3d fd3c b4b0 0d3d d19b 51bd
000002f0: ad79 d83c 2959 6a3e 0082 453e e030 1e3e
00000300: 85c6 d2bd 4000 d0bd 53de 313e c15e 2b3d
00000310: dc32 453d b438 21be b128 d23d 7c2b 72be
00000320: 73ca c83c 794e 85be 0414 aabd 0a67 4abe
00000330: f2d2 efbc dcd8 04bd 2355 d53d ef74 d03d
00000340: 100e 33bd 9386 c03d 0211 ee3d 4316 cd3d
00000350: b065 fc3b e4ad b63d 3052 c7bc c682 ce3d
00000360: 53ff 1d3e 2611 3b3c 49a9 70be 0dc9 023d
00000370: fbe3 9a3d 1b71 b1bc 4bc4 643e 4ce8 dd3d
00000380: 5f11 813e 4ce8 a83d 7ee3 38be fe84 613c
00000390: fd50 3c3e 2760 753c d6e3 c13b 75b0 dabd
000003a0: 95ad 72bd 487e c7bd 09c6 813d 6e5b 913d
000003b0: a47e d33d f858 adbe cafd 4fbc 7c5a dcbd
000003c0: 63a3 c63b 5cef 18bd 8c3f 8b3d d549 e63c
000003d0: b888 88bb bd50 fbbc 2f1e e2bb d49c 85bc
000003e0: 9c91 33bd 9974 e03d 1aa4 59bd d535 13bd
000003f0: 8b1c 1dbe 88c7 c3bd 00a0 8cbc 5401 ee3d
0.11320386 0.12397702 0.051023327 0.054285526 0.018599883 -0.049906615 0.15875706 0.08639082
0.0639152 -0.011153519 0.041307524 -0.30743653 0.016491784 0.054788467 -0.26790106 -0.18149482
-0.10325632 -0.20807779 -0.15833212 0.15589434 -0.08397092 -0.035273854 -0.1301531 -0.10954026
0.05970421 -0.059988596 0.058303084 -0.13582306 0.11899841 -0.009306233 -0.1532703 0.086722106
0.51121867 0.04340374 -0.14838803 -0.3752724 -0.17544092 -0.09806513 -0.20645587 0.1241003
-0.16481607 -0.0124094905 -0.092228636 -0.07945722 -0.021183599 -0.09179376 -0.04799586 0.030120866
-0.054457046 0.031563908 -0.029258803 -0.11085616 -0.10151961 -0.12812048 0.2099117 0.14957485
0.23448166 -0.124682166 -0.07591757 -0.073373586 -0.07290728 -0.023828989 0.11848177 -0.0016306763
-0.21810104 -0.21473418 0.04734002 0.00727966 -0.0680302 -0.15994196 0.008988777 0.066991605
-0.02565116 0.23379944 -0.17506777 0.10346856 0.21742846 0.22822043 0.07006936 0.045539312
0.18693358 0.06560854 0.05298529 0.13183218 0.11537034 0.098362036 0.25026208 0.2483806
0.16263616 0.1226883 0.11842937 0.05310689 0.09856315 0.25543973 0.20870446 0.018548133
-0.1562667 -0.15226792 0.1451889 0.059961475 0.07328195 -0.05953462 0.11668344 0.06194342
0.15812694 0.23849139 -0.19706021 0.012783917 -0.06723629 -0.050147075 0.036915056 -0.030917956
0.059340123 0.2091377 -0.080831565 -0.007721145 -0.024337165 -0.04192136 0.196678 0.009910305
0.012125638 0.026311282 -0.09931297 -0.03314569 0.07427427 0.14869411 -0.027854146 -0.04959531
0.002478934 0.051265962 0.125715 0.016337678 0.021296024 -0.01625155 0.14227542 -0.016624898
0.12330861 0.09480359 0.22908871 -0.014373484 -0.052704234 0.066823095 -0.081433125 -0.5223998
-0.13963173 -0.005897745 -0.0062555717 -0.006368406 -0.10003988 0.10399682 0.17810665 0.08252375
0.03731496 -0.001492739 -0.119918674 -0.24456118 0.32411233 -0.19506846 -0.05807064 0.09148759
0.13517453 -0.07075245 0.054335218 0.031451236 -0.08828128 0.02849155 -0.027573483 -0.008857862
-0.00023083512 -0.0052036345 0.07436586 -0.11405747 0.0075621125 -0.05663067 0.12378517 0.16092208
0.05429222 -0.044395782 -0.25154757 0.15963532 0.07689027 0.09071352 -0.10411929 -0.15655027
0.019383043 0.030913228 0.034592345 -0.05117399 0.026425207 0.22885574 0.19287872 0.15448332
-0.10291771 -0.10156298 0.17369966 0.04183841 0.048144206 -0.15744287 0.102616675 -0.236494
0.024510598 -0.26036432 -0.08304599 -0.19765869 -0.029275391 -0.032433376 0.10416629 0.10178553
-0.043714583 0.09400668 0.11624338 0.10014012 0.007702552 0.08919886 -0.024331182 0.10083537
0.1542943 0.011417663 -0.23502077 0.03193002 0.07563015 -0.021660378 0.22340505 0.10835323
0.25208566 0.08247432 -0.18055531 0.013764618 0.1839027 0.014976538 0.0059170527 -0.10678188
-0.059247572 -0.09740883 0.063366 0.07097517 0.10326889 -0.3385694 -0.012694785 -0.10759446
0.0060619577 -0.037337646 0.0679923 0.028111378 -0.004166689 -0.030678147 -0.006900571 -0.016310133
-0.043840036 0.10959739 -0.053135015 -0.03594001 -0.1534292 -0.09559542 -0.017166138 0.11621347

weight_hh_l0 f4 [256, 64]
00000000: 59de 6fbd 95a6 38be d9cc 0dbe eb80 30be
00000010: 3153 b8bc 11ad dcbd 9b38 463d 9e7d a5bd
00000020: 3643 3abe ada6 2cbe 9c22 a63d 4a4f ffbd
00000030: 8918 b13d f9b7 6c3b 4153 6c3e ab04 8bbe
00000040: f17e 063e 3903 9fbe 5d58 c5bc 38da 3a3d
00000050: f39d 30be e6c3 c5bd 5839 a0be 9737 003e
00000060: 9a9e 463e c874 1a3e 697d 32be 8fdb ad3e
00000070: 932e cfbb 002c 56bd 40b7 4bbe 78eb 603e
00000080: 3900 3f3d 2069 123d 1dc9 af3d 1175 3cbd
00000090: 17ed 19be 3c3c ebbc b9b0 4cbe 1535 eb3c
000000a0: 0429 903c c69a b5bd e448 9fbe cd79 bc3d
000000b0: a5a0 b4be f12b 603d 0fbb f8bc 5397 763e
000000c0: 2c6a fd3d 35ed 86bc 1e6e 77bc 9f7b cc3d
000000d0: f29e 79bd fd6a 713e 38b4 dabd 640e 4ebe
000000e0: f746 d9bd d0a9 cebd 8481 d0bd b62c 6dbe
000000f0: 6a44 c3bd ed63 c13c 5334 03be 1543 95be
00000100: 758d 893e a76d 613c b0e6 813d 81d8 013e
00000110: 6dbe ca3d 42ef 3fbe afcc db3d b35a c53d
00000120: 53eb 33be 17e9 3bbd 8f85 d73d a065 29be
00000130: e51f 163e add6 83bd e056 7dbe 3bd1 053e
00000140: a3db e43d 58d8 b43e bd08 803d defc 7e3c
00000150: f686 3f3c 472c 3abd 733c 853e b8da 4ebd
00000160: 633b b9bd 97a1 593c fa33 323d 2699 05be
00000170: af9d 033c 7abc 17be 9aee fe3d 2e66 9fbe
00000180: a67f b13e 64b8 2ebc 37d3 1bbd 6833 33be
00000190: 5e28 2fbe d384 73be 62f1 333e 2f18 c1bc
000001a0: f747 343d 60bd c6bd 20aa 5bbe 29da dd3d
000001b0: 969f 66bd e29c 283e e7f5 a43e faee 10be
000001c0: 0e20 313e 7514 893e 214c 58be 5e75 3dbe
000001d0: 6dc8 1c3d b2ab 0fbe 324d d93d 7e0d 153d
000001e0: 54a4 b1bd b198 8ebe c882 ebbd 7bb2 4b3d
000001f0: 489c 383e 8dcb 39bc 17e2 dd3d 9574 5a3d
00000200: fa89 d83d a356 fabd 2cfc 1e3d f01e 77bd
00000210: ae4e 4b3e ca94 1d3e 3c60 ac3d c22b 813e
00000220: 72f4 17be d30c 30be 292d b93c 71db 053d
00000230: d235 d6bd 08de 583e d399 893d d665 873e
00000240: 7867 02be 35f8 c83e 1d48 773e d1ed 1a3e
00000250: 0295 85bd 1b38 b63e 3d13 8c3e c4bc 6ebc
00000260: aea5 80bc 2f64 823e 25c9 833d 41b6 413d
00000270: 6098 1a3e 35b5 243e 5939 66bd cb58 cdbd
00000280: 703b eebd 6e99 213e 2021 c0bd 789a 0f3e
00000290: ac98 623b 0231 883e 0ec1 8c3e fe78 f6bd
000002a0: 67a4 c33c 3de2 9abd 830e d33c c656 513e
000002b0: 61b2 323c 7844 883d 4310 d9bd 9f97 e2bd
000002c0: f226 0dbd 0ff9 d93e f5ce 413e 5b54 51bd
000002d0: 2c94 06bb aa4e fdbd dc0a 183e 0e1a 6f3e
000002e0: f9f1 febd 0183 5c3e 5685 983d 7912 5d3e
000002f0: d7a9 cd3d 098b b1bd 770d 463e f1d2 543d
00000300: 2163 3a3e 0883 a53d 63d7 81bc d569 293e
00000310: 1066 7fbd 790e 35bd 49cf 003d b548 1d3e
00000320: 42f1 08bd fca6 e0bc 5653 6e3e a98d 483e
00000330: cb8f 4cbe 8cb4 243e 4433 5b3e 7c8f be3d
00000340: 9275 2bbd f4f4 c23d 3885 5abe 25ac 5b3d
00000350: 8f79 923d fba0 f4bd f9da 8cbe 1f01 a6bd
00000360: b5b7 2a3b 3a89 d03d 3e60 fc3d a3e3 6c3d
00000370: 8664 7d3e fb76 983d 9b1c 543d 092b 94bd
00000380: 1d0f 6a3e 6a27 953d 4de2 003d 4dfd 033c
00000390: 1d2e eebd 99ef f7bd d477 9f3d 7283 2b3e
000003a0: 5f32 1bbe 3eb6 39be 694f 92bc faa8 c63d
000003b0: c91d 173d 74ba 993d 7abc 8d3e e996 23be
000003c0: 5a39 1ebe bc8e 03bd bdc9 243e 7982 ac3d
000003d0: a638 2abc e32f 6c3e 5e56 97be 12e0 ff3d
000003e0: dd01 8cbd ff40 12be ac85 05be 4727 88bd
000003f0: 5d53 03be c067 28be da79 b6bd d276 67bd
-0.058561657 -0.18032296 -0.13847674 -0.17236678 -0.022500606 -0.10775197 0.048393827 -0.080806
-0.18189701 -0.16860457 0.0811207 -0.12466295 0.08647258 0.0036120398 0.23078634 -0.27152
0.13134362 -0.31057146 -0.024089986 0.045618266 -0.17247753 -0.09656505 -0.3129375 0.12521206
0.19396439 0.15083611 -0.17430653 0.33956572 -0.0063226908 -0.052288055 -0.19894123 0.21964824
0.04663107 0.035744786 0.08583281 -0.04601008 -0.15031849 -0.028715245 -0.1998929 0.028711835
0.017597683 -0.08867411 -0.311103 0.09202919 -0.35278812 0.054729406 -0.030362634 0.24081163
0.12373766 -0.016470531 -0.015101938 0.09984516 -0.060942598 0.23575969 -0.10678905 -0.20122677
-0.106092386 -0.10090983 -0.10180953 -0.23161587 -0.09534533 0.023607219 -0.12812929 -0.29152742
0.26865736 0.013759053 0.06342828 0.12680246 0.09899602 -0.18743613 0.107324 0.0963644
-0.17570238 -0.04587659 0.10523521 -0.16542673 0.14660604 -0.064374305 -0.24740171 0.13068096
0.11174705 0.35321307 0.06251667 0.015563218 0.011689892 -0.045452382 0.26022682 -0.050501555
-0.0904453 0.013283155 0.0435066 -0.13046703 0.0080332 -0.14817992 0.124478534 -0.31132644
0.346677 -0.010664079 -0.038043227 -0.17500079 -0.17105243 -0.23781137 0.17572549 -0.023571102
0.044013944 -0.09704089 -0.21451616 0.108326264 -0.056304537 0.16466096 0.3221886 -0.14153662
0.17297384 0.2677342 -0.21122791 -0.18501803 0.03827708 -0.1403034 0.10610427 0.03638982
-0.08673921 -0.2785087 -0.11499554 0.04973076 0.18028367 -0.011340034 0.10834139 0.053333838
0.10573192 -0.12223556 0.03881471 -0.06033224 0.19854233 0.1538879 0.08416793 0.25228697
-0.14839342 -0.17192392 0.022604542 0.03267998 -0.10459484 0.21178448 0.06718793 0.26444882
-0.12734783 0.39251867 0.24148603 0.15129782 -0.065225616 0.3558968 0.27358428 -0.014571372
-0.015704002 0.2546706 0.0643485 0.04729295 0.15097189 0.1608475 -0.056207035 -0.100267015
-0.116324306 0.15781185 -0.09381318 0.14023769 0.0034575863 0.2659989 0.2749104 -0.12034796
0.023882104 -0.07562683 0.025763756 0.20443258 0.010906787 0.066536844 -0.10598805 -0.11064076
-0.03446097 0.4257283 0.18926604 -0.05110584 -0.0020535095 -0.123685196 0.14847893 0.23349783
-0.12448496 0.21534349 0.07447307 0.21589078 0.1004216 -0.08669097 0.19341074 0.051958982
0.18201877 0.08081633 -0.015849775 0.16544278 -0.062353194 -0.044203255 0.031447683 0.15359767
-0.033433206 -0.027423374 0.23273978 0.19585289 -0.19976728 0.16084498 0.21406275 0.09304711
-0.04186017 0.09519377 -0.21339881 0.053630967 0.07152092 -0.11944767 -0.27510813 -0.081056826
0.002604944 0.10182424 0.12323044 0.05783428 0.24745378 0.07444569 0.051785093 -0.07234771
0.22857328 0.07282908 0.031465817 0.008055997 -0.11629889 -0.121062465 0.07786527 0.16749361
-0.15155934 -0.18135926 -0.017860131 0.097001985 0.03689364 0.07506266 0.2768286 -0.15975536
-0.15451565 -0.032118544 0.16092582 0.08423323 -0.010389483 0.23065142 -0.2955808 0.1249391
-0.06836293 -0.14282607 -0.13039273 -0.066481166 -0.1282477 -0.16445827 -0.0890996 -0.0565098

bias_ih_l0 f4 [256]
00000000: 5425 953c b866 833d 92cf 563d 45e1 283e
00000010: 75eb 583e e8ff b83d 780a 363d a5da d1bd
00000020: 2388 453d 6694 ff3d f375 203e d8bd 6d3d
00000030: 70d0 65bc 022d 653c e812 563d d096 a0bc
00000040: d22a 043e e3f2 043d 38fb 233e 033c 7cbd
00000050: e96e 023e 811b a33d ab4a 293e 3b04 993d
00000060: b12f 0a3d 764e f9bb c704 a63d 76f3 6b3d
00000070: b25a 543e f810 193d 77bf 133d ec84 2c3e
00000080: 6092 f03d b5e5 9ebc 8236 e73d c3a2 8fbd
00000090: 9c65 87bb 7f80 3d3e 999e 013e 97ed 96bd
000000a0: 846f d6bc 5581 883e fcdc 243e 0403 323e
000000b0: 2d51 3e3e 72b9 933d f391 943d a1fc 253d
000000c0: 38c2 953d 77bf 373e 4998 663d eb8a 593e
000000d0: 922d 2c3e 50fe d93d b72a 3ebd db51 3c3d
000000e0: 51a6 153d 18c4 dabb 2e66 1abd 77a0 26be
000000f0: a0c8 da3c c703 bb3d f637 ff3c e615 9a3c
00000100: 5cb2 af3d 2763 9f3e 6af2 983d 93b6 b13e
00000110: d1dc 823d 0858 633e 5969 813e 5df3 a13e
00000120: d4aa b0bc bc70 3e3e f16d 993e c6fe 8ebc
00000130: 5153 2a3a 098c 893e eaa6 c43d 1ace 2e3e
00000140: cb21 693e cf7b 613e fa1e 303e 6463 183e
00000150: 2c2a c13d 54a8 893d f49a 853e f669 6f3e
00000160: 3616 063e 91e9 4b3e a2e0 db3d 8c6c c53d
00000170: 3f8c 0c3e 8091 183e 248e f83b 0eaf 123e
00000180: 4c55 033e e4d3 983e 8c97 4e3e ce19 ab3d
00000190: 8be3 5f3e f6cb 023e dcaf 7d3d 5f3d ea3c
000001a0: d772 18bc 5741 813e 7fb6 373e 72b0 da3d
000001b0: 3595 343e 7e92 573e c6a2 f13c fb72 943d
000001c0: 9cac 233e 227f 3e3e f384 1f3e 60f0 8b3e
000001d0: c3ef 663e c4f9 bfbc 5391 113e 318a 6a3e
000001e0: 81c7 893e 018d 453d bb46 013d b87e 603d
000001f0: f10c 8a3d 427a 973d 269f 2bbe 2238 2d3e
00000200: 89ef 293d bb2b b4bc 4b53 d33d ef7f 1d3d
00000210: 32e1 5abe 9b01 5c3e 9a37 06be 9701 a83d
00000220: 52b8 003e 7886 f03d d749 4a3e 14e0 f63d
00000230: bfa6 f0bb b46f a53d 2c81 bdbd c605 3bb9
00000240: 8201 a03c 8231 01be 0405 84be 788a 93bd
00000250: 9a9f 963d df68 1fbe 1db9 03be 4946 ef3d
00000260: 3e71 a1bd dabe 1b3e 4b15 843d 14a5 03be
00000270: de82 ddbd ce4e ebbd 6739 06bc 8f5b 1bbd
00000280: 0ecd 31bc acdd d6bd 8a00 bfbc 4225 debd
00000290: 472e 12be 7ac4 d73d 48c8 193d fcfb 7f3c
000002a0: 809d 5e3d 5337 243d 3513 44bd 6a50 6f3e
000002b0: d276 313d 83f0 2d3e 5917 9d3d 5864 e5bc
000002c0: 097d b0bd ca97 6bbd 4ddf 953d 0025 b9bb
000002d0: 185f d4bd a2c8 ef3c 51d7 183e fd23 26bd
000002e0: a738 b4bd bd3a eb3d b47c cf3c 3db5 c1bd
000002f0: f85b cd3d 28ed 1a3d 580e 9ebd 8374 5f3d
00000300: b2d3 eb3d 5042 5d3e d66f 823e ebc1 483e
00000310: 7d9b 8e3e 323f e53d 6a43 8d3e 71a8 163e
00000320: da4b ae3d af61 2a3d 54e0 373e 4335 763d
00000330: c7a9 833e b09f 9b3e 2265 4b3e 8e7e 2e3e
00000340: 4bde 3e3e 11f9 673e 5ff5 063e 2ba2 013e
00000350: be87 ca3c 66ae 7e3e 0be7 643e 120c 663e
00000360: 4a4b 513d cfac b93d dfad 9f3e a5af 453e
00000370: 2091 a03d e43d 073e f4a9 f73d e1d7 943d
00000380: 659c 2b3e 13d2 8a3d 40d2 8d3c f209 bf3d
00000390: 7cb8 aa3d 6540 1d3e cd5a 843e 6a0f ac3d
000003a0: a9c5 013d c199 8e3d 8f26 633d 79d1 bf3e
000003b0: 2c6f 613e e92c 3e3d a09e 803e 838b 133e
000003c0: 5a77 2f3e f4f7 cc3d 5b01 bc3d 18b3 ce3d
000003d0: fd25 993e 952e 2d3c 3712 123e 23a1 9b3d
000003e0: fdea 1f3e fd30 ba3d 2771 4d3e 5d7b 7d3e
000003f0: 00c5 0b3e a9bf 483e 4a61 a03e 1d6a e33d
0.018206276 0.064160764 0.05244405 0.16492184 0.2118357 0.09033185 0.044443578 -0.10246781
0.048225533 0.12479477 0.15669994 0.058042377 -0.014026746 0.0139877815 0.052264124 -0.019603163
0.1290696 0.032458197 0.16013801 -0.06158067 0.12737621 0.0796423 0.1653239 0.0747151
0.03373689 -0.00760823 0.0810638 0.05760523 0.20737723 0.0373697 0.036071267 0.1684758
0.11746669 -0.019396642 0.112896934 -0.07013466 -0.004131986 0.18506049 0.12658156 -0.073695354
-0.026176222 0.26661173 0.16099924 0.17383963 0.18585654 0.07213105 0.072544 0.04052413
0.07312435 0.17944132 0.056297574 0.21244399 0.16814259 0.106442094 -0.046427455 0.0459765
0.036535565 -0.006676208 -0.037695102 -0.1627215 0.026706994 0.0913158 0.031154614 0.01880927
0.08578941 0.31130335 0.07468112 0.34709606 0.06389774 0.2220155 0.25275686 0.31630984
-0.021565832 0.18597692 0.2996669 -0.01745547 0.00064974005 0.2686465 0.09602149 0.17070809
0.22766797 0.22019885 0.17199317 0.14881665 0.09431872 0.06721559 0.26094782 0.23380265
0.1309441 0.19913317 0.10736205 0.09639844 0.13725375 0.14899254 0.007585304 0.1432459
0.12825507 0.2984916 0.20174998 0.08354531 0.21864145 0.12773117 0.06193529 0.028593717
-0.009304724 0.25245163 0.1794071 0.106781855 0.17635043 0.21051976 0.029496562 0.07248493
0.15983814 0.18603185 0.1557806 0.2733183 0.225524 -0.023434527 0.14215593 0.22904278
0.26910022 0.048230175 0.031561594 0.05480835 0.067407496 0.07396366 -0.16759929 0.16915944
0.041488204 -0.021993509 0.10318621 0.038452085 -0.21374968 0.21484987 -0.13107148 0.08203428
0.12570313 0.11744398 0.1975473 0.12054458 -0.0073440964 0.08077946 -0.09253153 -0.0001783586
0.019531969 -0.12616542 -0.25785077 -0.07204145 0.0735466 -0.15567349 -0.12863584 0.11683328
-0.07882927 0.15209523 0.06449374 -0.12855941 -0.108159766 -0.1148964 -0.008192397 -0.037929114
-0.0108521115 -0.10491499 -0.023315687 -0.1084695 -0.14275466 0.10535522 0.03754452 0.015624043
0.054349422 0.040091824 -0.04786988 0.2337052 0.043326207 0.16986279 0.07670469 -0.02800195
-0.086175986 -0.057517804 0.07317982 -0.0056501627 -0.103697 0.029270474 0.14925887 -0.040561665
-0.08799868 0.11485813 0.025328018 -0.094583966 0.10027307 0.037823826 -0.077175796 0.054554474
0.11514987 0.21607327 0.2547595 0.19605224 0.27853003 0.11193694 0.27590495 0.14712693
0.08510561 0.041597065 0.17956668 0.060109388 0.25715467 0.3039527 0.19862798 0.17040464
0.18639486 0.22653605 0.13179539 0.12659518 0.02472293 0.24871215 0.22353761 0.22465542
0.051097192 0.09066164 0.3118734 0.19305284 0.078401804 0.13207203 0.12092963 0.07267738
0.16758879 0.0677835 0.01731217 0.09328069 0.08335969 0.15356596 0.25850525 0.084013775
0.031682644 0.0696292 0.055456694 0.37464502 0.22015065 0.04642955 0.2512102 0.14408688
0.17135373 0.10008231 0.09179946 0.10092753 0.29911795 0.010570188 0.14264761 0.07599094
0.15616985 0.09091375 0.20062695 0.2475409 0.13649368 0.19604363 0.31324226 0.11104224

bias_hh_l0 f4 [256]
00000000: c48f 3c3d 4523 2a3c 8b84 19be f060 5b3e
00000010: e1f8 8a3d ed6a c7bd 30b0 9d3d 66c8 843d
00000020: 45d3 ffbd 7287 36bd e87e 8a3e 4bf8 9f3d
00000030: 6e6e 403d 23da fa3d e9da ae3d d4ff 303e
00000040: a4b9 0b3e 4a13 0a3e 79b6 1fbc f943 1cbe
00000050: a5af 503d 3778 653e 7193 0b3e 6852 aabc
00000060: 9026 f7bc 374c a23c fd01 29bc 3587 b43d
00000070: 7620 db3d dc9d eebd 2a5b 23be 144c 873e
00000080: bba8 563d c5f0 49bd abc9 4cbc a68f 573c
00000090: 848d d43d 5ed7 4bbd 408e ee3d ab3b cb3d
000000a0: 79ce 6fbd b602 063e 52b5 893d b95c f83d
000000b0: 79ed 013d 61ed a63c fb3f 103e 4cf7 803d
000000c0: 66de c43d d2ce 823d 6096 d13d 3adc a63d
000000d0: 44a4 ce3b 2662 83bd 5093 f93c 9f19 31bd
000000e0: 0a65 27be 9263 3fbd bad2 dabc 30db e5bc
000000f0: 1023 a9bd 33b2 5fbb d84d 0d3e f4bf 38bd
00000100: 85ff 373d b503 9f3e 0a77 3d3e 1df8 d33e
00000110: b61e 303e ab52 f53d 30cb a63e 8de3 bc3d
00000120: 3bb3 8c3d 4efc 653e 4acc 693e 51c6 b83c
00000130: b0f4 363e bd1b ea3d 46d3 983d 695e fd3d
00000140: 5600 253e c799 bb3c 7110 ac3e b410 96bc
00000150: fdb9 e43d 8b09 5a3d 587a 933d 183c 2c3e
00000160: 7325 a23d bfd4 c53d 13d2 c13d 09de a13d
00000170: b68a 073e 21e9 513e 0f8f 143e ca8f fc3d
00000180: 1fc8 3d3e 4a16 643e 7a66 013c d78a e93d
00000190: 30ba 6d3e 97b6 af3d 5da1 4f3e 5004 4d3e
000001a0: cca0 38bc 988d b93d e10d e93d f2d6 8b3e
000001b0: caf2 ef3d cf82 533e 6d8b 0f3e 3526 853e
000001c0: 4d98 453e bf3d 383e f14f 063d 797a ac3d
000001d0: 8977 a83e 4c81 fe3b c4ee 813d 075b f53d
000001e0: 5a08 283e df4d 053c ce84 54bd a29b 303d
000001f0: 353e d03d 2e17 c33c bf0b 9c3d ea4f c13d
00000200: 9325 d43d 7395 803d dbe2 f23d 482b af3d
00000210: 9116 23bc 1918 b13d fbd2 78bd fb87 1abc
00000220: e759 e0bc d74d 893d edf2 373d 738a 573d
00000230: 7319 dd38 3081 a9bd 6704 473c 9fee 99bd
00000240: c3cd 20bd eca3 bebd c038 33be b478 d53d
00000250: 0d6a cebc c43e 823d 9f31 babd 3dd9 84bd
00000260: 9570 113e f005 533c 5d1e d7bd bdab 8d3d
00000270: d467 d3bd be56 aa3d 88d5 463d 5669 adbb
00000280: 8ee4 94bc 5f9e 18be 678c 2dbe 1037 08be
00000290: 3b8b 86bd 24b2 15bd 7cf0 fcbd b0ee 13be
000002a0: aa5e 9c3b cdeb 053e 94a4 bbbd 90a7 413d
000002b0: 7ed6 213e d74e d23d b2ae af3d b539 07be
000002c0: 3f7c a9bd 65af 13be 6d20 343e 2c86 b73d
000002d0: 534e 883d 9190 cd3d a7c8 503d 8e96 7fbd
000002e0: 6869 bcbd 3b5c 3abc a196 cd3d bd0d 2ebe
000002f0: f050 a3bd 70bc 083d 98fd da3d ee2d 9d3d
00000300: 0e5b 503e e1b6 433d d32b 9c3e 76b6 893e
00000310: 8353 8f3e c91a 533d 20b7 063e 92d5 8d3d
00000320: 9149 7fbd 4674 5d3e de6c 7f3e 0c38 743d
00000330: 1c47 7f3e 9830 a83e dd70 dfbc 7650 663e
00000340: 74f6 8a3e 5d24 ce3d 627b a73e 7b3c 583e
00000350: e94c 2fbb d590 863e a7e8 0e3e 17df 1e3e
00000360: f78d 963d 6f09 253e 2fa2 963e aa89 de3d
00000370: 812c d03d cc59 533e 223e 803d 6a7d 473e
00000380: 826c d33d f6d0 113e 34d3 bf3d 2e81 843e
00000390: b4c4 3a3e 935f 8d3e 6026 6c3d 6169 cb3d
000003a0: 1594 3b3e f2d9 983e 82bd 0c3e aca0 ba3e
000003b0: 1715 ad3e 8059 d73d 3966 873d 081a 3f3e
000003c0: 2503 203e a5f9 e33d c0bc 963d 01b0 633e
000003d0: 6a74 163e 1072 533e 933c 053e 2d87 0e3e
000003e0: e3d3 463e e4d3 923e 9cb7 14bc e2eb 3a3e
000003f0: 6f2e 9d3e 6d63 593e a852 b63d b7e3 9e3d
0.046035543 0.0103843855 -0.14991967 0.21423697 0.06785751 -0.09737191 0.07699621 0.064835355
-0.12491468 -0.044562764 0.27049947 0.0781103 0.046980314 0.122486375 0.085378475 0.1728509
0.13645035 0.1348392 -0.009748095 -0.15260305 0.050948758 0.2240914 0.13630463 -0.020791247
-0.030169755 0.019811733 -0.010315415 0.08814851 0.10699551 -0.11651203 -0.15952745 0.2642523
0.052407008 -0.04930188 -0.012499253 0.013156807 0.103785545 -0.049765937 0.11648226 0.0992349
-0.058546517 0.13086972 0.06724037 0.121270604 0.031720612 0.020376863 0.14086907 0.06297168
0.09612732 0.06387104 0.1023376 0.08147474 0.006306203 -0.06415205 0.030465752 -0.043237325
-0.16347137 -0.046725817 -0.02671181 -0.028058618 -0.08258641 -0.0034133315 0.13799226 -0.045104936
0.044921417 0.31057516 0.18502441 0.41400233 0.17199215 0.11978658 0.32576895 0.09223089
0.06870123 0.22459528 0.22831836 0.022555502 0.17866778 0.11431072 0.07462172 0.12371523
0.1611341 0.022900475 0.33606294 -0.018318512 0.11168287 0.053231757 0.072010696 0.16819799
0.07917299 0.09659719 0.094638966 0.07903678 0.13236508 0.20499088 0.14507698 0.12332113
0.18533371 0.22274128 0.0078979675 0.11403435 0.23215556 0.08579748 0.20276399 0.20021176
-0.011268806 0.0906021 0.113796 0.27312428 0.1171623 0.20655368 0.1401803 0.26005712
0.1929638 0.17992304 0.03279108 0.08421797 0.32903698 0.007766878 0.06344369 0.11980253
0.16409436 0.008136242 -0.051884465 0.043117173 0.10168115 0.023814764 0.07619428 0.094390705
0.10358729 0.06278505 0.118596755 0.08553177 -0.009954111 0.086471744 -0.06074808 -0.009431834
-0.027386619 0.067043 0.044909406 0.05262227 0.000105428415 -0.08276594 0.012147046 -0.075162165
-0.03925873 -0.09308609 -0.17502117 0.10423413 -0.025197053 0.06359628 -0.09091496 -0.064867474
0.14203103 0.012879834 -0.10503838 0.06917522 -0.10322538 0.08317326 0.048543483 -0.005292098
-0.01817539 -0.14904164 -0.1694809 -0.13302255 -0.06569525 -0.03654684 -0.12350556 -0.14446521
0.004772027 0.13078232 -0.0916225 0.04727894 0.15804479 0.10268944 0.08578242 -0.13205607
-0.08275651 -0.14422376 0.17590494 0.08961138 0.06655564 0.100373395 0.050972607 -0.06239944
-0.09199792 -0.0113745285 0.10038496 -0.16997428 -0.07974422 0.033382833 0.106929004 0.07674776
0.20347235 0.04778183 0.30502185 0.2689702 0.27993402 0.051539216 0.13155794 0.06925501
-0.062326018 0.21626386 0.24943873 0.059623763 0.2492947 0.32849574 -0.027275497 0.22491631
0.27141154 0.100655295 0.3271132 0.21116821 -0.0026748723 0.26282373 0.13955937 0.1551479
0.073512964 0.1611688 0.2942061 0.10866101 0.101647384 0.20639724 0.06261851 0.19481435
0.103234306 0.14239869 0.09366456 0.25879806 0.18239099 0.2761198 0.057653785 0.09932209
0.18318208 0.2985378 0.13744166 0.36450708 0.33805153 0.10515118 0.06611294 0.18662274
0.156262 0.111316 0.0736022 0.22235109 0.14692846 0.2064898 0.13011388 0.13918753
0.19416766 0.28677285 -0.009076979 0.18254045 0.3069949 0.21229334 0.08902484 0.07758277

weight_ih_l1 f4 [256, 64]
00000000: 2ed5 8d3e 2b6e acbe 71d4 893d b8bf 943b
00000010: 02f0 b6bd 216a edbc c417 74bd 0dc0 553d
00000020: 626a 01bd 598c 0bbd 5d07 61bd e03a 9abc
00000030: dd51 973d d71a 1a3d fac0 48bc 309b a1be
00000040: dc1c 043d 7e4e 8c3d c364 013e 4f3c b4bd
00000050: 3f0e e13d 78c2 cabe 7348 40be 3792 95be
00000060: aed1 a2bd 90b7 e3bd 48b9 b63d 8741 44be
00000070: 49f6 3f3d 6cdd 353d cb08 e23c 3997 a2be
00000080: 9557 c83e 13cd 1f3d 72ba d5bd 2f06 dd3e
00000090: 60fb 26be 7ef7 38bd 2a15 45be 2884 bebd
000000a0: 33b8 30be 63b9 013e e6e0 4d3c a088 33be
000000b0: 553f 8f3e 7021 9c3e cbcc e23d 13fb 9b3c
000000c0: f067 e3bc 025c bfbd 8c68 1e3d 6e2a bb3d
000000d0: d9dd e4bd fdb6 a8bc 437c fe3d 85e8 afbd
000000e0: 4c6f bbbc fbab a33d 0868 733e 9679 183e
000000f0: 1234 563d cca3 e23e 91f3 703e 910f 063f
00000100: 1be8 ec3d f5fb 843e 4c4f 6d3e 0940 293e
00000110: 36f6 a2be d2cc e53c 5d0e 9ebd 541d cc3d
00000120: ef60 46be 6117 333e 15e3 3abe 7321 c43d
00000130: 4a96 a5bd 7d48 5cbe ff05 93be a1b8 593d
00000140: 653f dabc b0e5 c0be 8c7b edbd 9a0c 103c
00000150: db46 0bba 249d 29be 63bf 4abd f95f 02be
00000160: 9443 133e 131e edbd 6c4a e8bd 3fe7 8ebe
00000170: 4406 86bd fa1e 8abe ca65 9dbd 9b9d 723d
00000180: 279d 10be 1255 303e e0ff 34bd 1c25 cabd
00000190: 4dc3 993e 8368 743e 6d08 7cbd 31b7 1fbd
000001a0: ed94 ff3c 9d27 56bd bcbe 03bd 67cc b13e
000001b0: 85cd 263e f0f6 8cbe 6882 9fbc ee29 8ebd
000001c0: 1015 013e 08f2 3ebe b5f6 253d 84c8 263e
000001d0: f653 50bd 8403 2b3d 2b8e 543d b8f7 88bd
000001e0: ad22 c03d 2793 c43d 8b47 93be 9e7d 95bd
000001f0: 5bc6 adbd 103d 9e3e aa1b 083f 83bd 573c
00000200: 31e6 a0bd a7b9 08be 84bd 833e 6642 ee3d
00000210: e6f2 9cbd 14fb 673c 6ac8 9dbe 82bb 643e
00000220: 8ef2 4b3d 1064 a43c f1a4 213c cff7 993d
00000230: 3815 4b3e 8d42 1c3e 5cee a9be 11a9 033e
00000240: 0568 6b3e d72c 1fbe d466 b6bd 3d15 6f3e
00000250: ac37 4a3c 46cd 2dbd 16ab ae3d 3c88 003e
00000260: 2ee0 133e 51ad 51be af71 993d 2703 9c3e
00000270: 53a5 b73e 43d7 72be 1d5e 453e 75b2 54be
00000280: d1c4 63be 388e 9ebd 1595 4abd d026 863d
00000290: d0dc 943c f28e 543e 80b9 843e d408 b93e
000002a0: 11b7 f4bd ea63 96be b4b2 8fbd 8de1 b23d
000002b0: 3078 b0bc 0551 49be fb31 6cbe 89a0 353e
000002c0: f310 4abd ea50 d63d 003d d8bd 2471 47bd
000002d0: 6890 c83e 9888 ab3d 29e1 3a3d 557b c53e
000002e0: fb2a 823d f8ed be3d b33b 943e 79b8 5cbe
000002f0: d979 edbd 58d1 383e 825a d5be bab5 6f3b
00000300: 51fd 3a3e cf21 69be 5f69 163e 8de1 6fbd
00000310: ada4 373e b2c5 15be b2e0 033e bf9d 98bd
00000320: dc74 23bd 2e1d e4bd 20ad 6a3e 9a4b 573d
00000330: 1cc4 003e c493 2fbd c5bb 3d3e aa8e f43d
00000340: be88 f5bb b911 b43d 03ea 023e 3def 203e
00000350: d6d4 993c 5275 86be 3faf 6fbe 35e8 a2bd
00000360: ed60 333d 2f81 173e e93f 3ebd 3a80 993d
00000370: a5b6 15be eefc 263e e21f 753e 6d11 0d3c
00000380: c126 66be 40fe 9cbd 6e9d aa3d 2a67 bebe
00000390: f80f 7d3c 285b c03d fcaa 8fbe 47f4 6b3e
000003a0: b599 ea3d 421f 04be af60 88be f73a 37be
000003b0: 184a 5a3e cfef 80bd f0b3 b3bd 85d2 aa3e
000003c0: febd 11bd d359 1abe 2f2a 243d 8991 0fbd
000003d0: 77a8 933c ae18 e2bd 7e23 443d fc21 1bbe
000003e0: a616 b13d 5eb2 223e b710 0ebe 2223 65bc
000003f0: 9bad 94bd 7b66 14be a378 063e d528 f63d
0.27701706 -0.336778 0.06729973 0.004539456 -0.089324966 -0.02898127 -0.059592977 0.052185107
-0.031595595 -0.034069393 -0.054938663 -0.018826902 0.07388661 0.037623253 -0.01225304 -0.3156371
0.032254085 0.06850909 0.12636094 -0.088005655 0.10989045 -0.39601493 -0.18777637 -0.29213116
-0.079501495 -0.11118996 0.08922058 -0.19165622 0.046865735 0.044400617 0.027592083 -0.31756
0.3912932 0.039013933 -0.10435952 0.4316878 -0.1630683 -0.045157902 -0.19246355 -0.093025506
-0.17257766 0.12668376 0.012565827 -0.17532587 0.27978006 0.3049426 0.110742174 0.01904062
-0.027759522 -0.09343721 0.038673922 0.09138952 -0.111751266 -0.020595068 0.12426045 -0.085892715
-0.022880219 0.07991787 0.23770154 0.14890131 0.052295752 0.44265592 0.23530413 0.523675
0.11567708 0.25973478 0.2317478 0.16528334 -0.3182847 0.028051767 -0.07717583 0.099665314
-0.19372915 0.17489387 -0.18250687 0.095766924 -0.08085306 -0.21512027 -0.28715512 0.05315459
-0.026641557 -0.37675238 -0.1159583 0.008792067 -0.00053129875 -0.1656385 -0.049498927 -0.12731923
0.14381248 -0.11578002 -0.1134232 -0.27910802 -0.06544164 -0.26976758 -0.0768543 0.059232336
-0.14122449 0.17219952 -0.044189334 -0.09870359 0.30031815 0.23867993 -0.061531473 -0.038993064
0.031198943 -0.052283872 -0.03216432 0.3472626 0.16289337 -0.27532148 -0.019471362 -0.06941591
0.12605691 -0.18647015 0.04051848 0.16287428 -0.05086132 0.0417514 0.051893394 -0.066878736
0.09381614 0.095983796 -0.2876552 -0.0729935 -0.08485099 0.30905962 0.5316721 0.013167742
-0.078564055 -0.13352071 0.25730526 0.11633758 -0.07663517 0.014158983 -0.30816966 0.22337154
0.049791865 0.020067245 0.009865985 0.07517969 0.19832313 0.15259762 -0.33189666 0.12857462
0.22988899 -0.15544449 -0.08906332 0.23347946 0.012342375 -0.042432092 0.08528726 0.1255197
0.14440987 -0.20476271 0.074923865 0.30471155 0.3586832 -0.23714928 0.19274183 -0.20771201
-0.22243048 -0.0774197 -0.049458582 0.06550372 0.018171698 0.20757654 0.25922775 0.36139548
-0.1194898 -0.29373103 -0.07016507 0.08734427 -0.021541685 -0.19659813 -0.23065941 0.1773702
-0.04933257 0.10464652 -0.1055851 -0.048691884 0.39172673 0.083756626 0.045624886 0.38570657
0.06355854 0.09322733 0.28951797 -0.21554746 -0.11595506 0.18048608 -0.41670614 0.0036576823
0.18260695 -0.22766803 0.14688633 -0.05856471 0.17933913 -0.14626196 0.12878683 -0.07451963
-0.039906368 -0.11138378 0.22917604 0.052562334 0.1257481 -0.04286553 0.1852866 0.119412735
-0.0074931076 0.08792443 0.12784581 0.15716262 0.018778246 -0.26261383 -0.23406695 -0.07954446
0.043793608 0.14795373 -0.04644767 0.074951604 -0.14620455 0.16307423 0.23937944 0.008610112
-0.22475721 -0.07665682 0.083308086 -0.37188083 0.015445702 0.09392387 -0.28060138 0.23042403
0.114550985 -0.12902549 -0.26636264 -0.17893587 0.21317327 -0.0629574 -0.08774555 0.3336374
-0.03558158 -0.15073328 0.040079292 -0.035050903 0.018024666 -0.110398635 0.04788541 -0.15149683
0.08646898 0.15888354 -0.13873564 -0.013985427 -0.07259675 -0.14492218 0.13131957 0.12019507

weight_hh_l1 f4 [256, 64]
00000000: b270 353e 75d2 64be a106 82be 50a9 0a3c
00000010: 7801 903e a15b 33be fc9a 2abe 292e 6cbe
00000020: b657 933d 8e04 27be b6ec a9be 575a afbd
00000030: 2a2e 67be f96f c6bd e46a 8cbd 349c 063e
00000040: 687e 4e3e 2713 2b3e 4844 9f3d f19a e73d
00000050: 7545 033e cd62 3d3e 90c9 edbd 4eb9 9fbe
00000060: 6d73 733e 9fe4 e03d bf15 d73d e2ec a03e
00000070: b77e 0dbe 6da2 49be 21e5 cdbe e713 d63d
00000080: 22d8 5a3e 7d5c ae3d 49ef 823d 339f 3abd
00000090: 6964 c4bd 46fc 50be a637 1a3e e71c c4bb
000000a0: 9ee6 1cbe 3e91 6ebe 109e 8e3d e91d 11bd
000000b0: 8a5b e73d 7a84 afbd 8936 703e aff7 533e
000000c0: 975b 2fbc eab3 ecbd 7103 ca3d 9ff2 c8bc
000000d0: 71f4 9d3c cd79 95bd 950d 9dbd dcaf 773e
000000e0: 231d 873e 47f1 6cbe f962 4bbd dc1c 083d
000000f0: 2eeb eabd b577 aebe 7362 5abd d204 31be
00000100: e31a e4bd 658a a4bc 9113 263e bec1 8ebd
00000110: a972 013d 54da 8e3d 7bf8 3abe b864 4d3e
00000120: b26e 1c3e f24e 7d3e c5f8 0c3e e93e 52bd
00000130: acb0 d3bd 1243 1dbd 89a6 ee3d 6994 e83c
00000140: ba9e 50bd 31b1 323e 6cf8 3abe d524 c23d
00000150: 1fe7 17be 14a0 0f3e e4f1 513d 4496 d0bd
00000160: d4fe c13d e3e5 f8bd 2635 453e 3d46 853e
00000170: 0cc2 24bd 93f5 82be 0e3e 1ebe 3101 1dbe
00000180: 9b17 c1be 42d6 d0bd 0d4b 5fbd adc3 8cbe
00000190: 1f55 a33d cf2b f0bd 28fe 9c39 b158 673d
000001a0: 0a84 833d 86cc 223e 8b41 02bf 08eb f03d
000001b0: 3782 613e 941e 843d 05e4 523c 5f9c 99bd
000001c0: 25af 6e3d 6b39 9fbe 344a 52be 0835 a03e
000001d0: d206 dcbd ea6b 9cbb 6419 143e ccd8 413d
000001e0: 28e7 5cbe 4d40 033e 2495 3dbe 3410 44bd
000001f0: 4d2c e03d c634 4c3b 0e92 1b3d bc6f ec3d
00000200: 7468 a1bd b41a 96be 693f 63be d1dc c63d
00000210: 5a4c 96bd c9a6 523e a808 00be efee 0bbe
00000220: 5bfb 4b3e cf69 b7bc 57df c03e 3921 b1be
00000230: 5f55 26bd 34ac 1a3e de88 94bc a598 c03e
00000240: ae16 263e b35c ac3e 4067 703e c891 aa3e
00000250: 66f8 dabc e01f 9d3e 1678 083d fd33 99be
00000260: 6b55 e33d 1489 cebd fe4c 0dbe 099f 5bbe
00000270: 3d3b 97be dc86 1cbd 4101 493c 4d8c 33bd
00000280: 9790 343e 29b4 8b3e 878f 74be 014a 003f
00000290: c942 133e faa8 c33d 0b12 853e 2cf9 f8bd
000002a0: 2a05 783e a291 373e 034c a7bd 7973 a33e
000002b0: 677b 10be 7a1e 753e 961c 1e3e ad6f 003e
000002c0: c121 dabd 8eec c7be 5a86 e03d a2b5 bf3d
000002d0: 4e0e a4be 46e6 a6bd b10c 25bf 65df 0a3f
000002e0: 4680 91be 462a c3be 20cd 453e 7a41 9ebc
000002f0: 6cbc 203e 9d23 583d fa60 823e b5ae 8abc
00000300: ebd4 b53d 83bf fe3d 81cd 0fbe 0fe8 be3d
00000310: 037f 353e 4021 d03d 71bc 913d a835 083c
00000320: e099 543e 02eb 4c3e 6cb0 f3bd c0bf 4d3d
00000330: 3efb feb9 759d 7a3d d89e 693e 5951 79bd
00000340: a14c 3fbe 3a3f 1cbd 9bdf 48be d75e a83d
00000350: 6aae e3bb a48e 69bd e3e9 b2be 1291 b6bb
00000360: cab1 17bd 1b7a 5dbe ae90 ea3d fae0 5dbe
00000370: 121a 243e e46f a73c 3da5 2cbc 9194 183e
00000380: fe00 fd3d d796 383d 2c3e 523e a052 243e
00000390: 69f4 b0bd 0088 e3bd 6555 4a3e f333 6d3b
000003a0: ffc6 b9bc 4ad3 843d c0bb 02bd 82e9 36bd
000003b0: 57fa 9bbc fa48 533e 468f b6bb 2003 673d
000003c0: a3d4 01be 1a41 d83c 7921 9dbd 06f5 4c3d
000003d0: 1582 a13e c404 f3bc 96a6 c63e a49d 0b3e
000003e0: 014b 1bbd 7373 f1bd 2613 dcbd 31c9 b0bc
000003f0: b5e8 c63d 6a8b 3a3e edd5 b3bd 7fb5 043d
0.17718771 -0.22345908 -0.25395682 0.008463219 0.2812612 -0.17515422 -0.16660684 -0.23064484
0.07194464 -0.16310331 -0.3318841 -0.08562153 -0.22576204 -0.09689326 -0.06856325 0.13145524
0.20165408 0.16706525 0.077766955 0.113088496 0.12819465 0.18494721 -0.116107106 -0.31196064
0.237745 0.10981106 0.105021946 0.31430727 -0.13817869 -0.19690867 -0.40213874 0.10453015
0.2137151 0.085137345 0.06393296 -0.04556198 -0.09589464 -0.20408735 0.1506029 -0.0059848907
-0.15322348 -0.23297593 0.06963742 -0.035428915 0.112967566 -0.0857019 0.23458304 0.20699953
-0.010702989 -0.115577534 0.09863938 -0.024529753 0.019281598 -0.07298622 -0.07668606 0.24188179
0.26389417 -0.23138915 -0.049654935 0.033230647 -0.11470638 -0.34075704 -0.053316545 -0.17286995
-0.11137941 -0.020085523 0.16218401 -0.06970547 0.03160349 0.069752365 -0.1825885 0.20057952
0.15276602 0.24737146 0.13766773 -0.051329527 -0.10336432 -0.03839404 0.11652858 0.02839108
-0.050932623 0.17450406 -0.18258828 0.094796814 -0.1483426 0.14025909 0.051256076 -0.10184911
0.09472433 -0.121532224 0.19258556 0.2603015 -0.04022412 -0.25577983 -0.1545336 -0.15332486
-0.37713322 -0.101971164 -0.054514933 -0.2749304 0.0797522 -0.11727106 0.00029944 0.056481067
0.06421669 0.15898332 -0.5088126 0.11763579 0.2202233 0.06451145 0.012871747 -0.075005285
0.0582725 -0.31098494 -0.20536119 0.3129046 -0.10743488 -0.0047736065 0.14462811 0.047325894
-0.21572554 0.12817498 -0.18513924 -0.047867015 0.1094595 0.0031159385 0.037981085 0.11544749
-0.07881251 -0.29317248 -0.22192158 0.09710086 -0.07338782 0.20571436 -0.12503302 -0.13665365
0.19920103 -0.02238932 0.37670395 -0.3459566 -0.04060876 0.15104753 -0.01813167 0.3761646
0.16219589 0.33664474 0.23476887 0.33314347 -0.026729774 0.3068838 0.033317648 -0.29922476
0.111002766 -0.10084739 -0.13798901 -0.21447386 -0.29537383 -0.03821455 0.012268365 -0.043834973
0.17633282 0.2728589 -0.23882876 0.5011292 0.14380945 0.09553714 0.25990328 -0.12156901
0.2422072 0.17926648 -0.08168795 0.31924036 -0.14109574 0.23937407 0.15440592 0.12542601
-0.10650969 -0.39047664 0.109631255 0.093608156 -0.32042164 -0.0814939 -0.6447249 0.54247123
-0.28418177 -0.3811819 0.1931653 -0.019318331 0.15696877 0.05276834 0.25464612 -0.01692901
0.088785015 0.12438872 -0.14043237 0.093216054 0.17724232 0.10162592 0.071160205 0.008313574
0.20761824 0.20011523 -0.11898884 0.050231695 -0.00048633845 0.06118532 0.228145 -0.060868595
-0.18681575 -0.038146235 -0.19616549 0.08221214 -0.006948282 -0.0570208 -0.34944066 -0.005571493
-0.037034787 -0.21628611 0.11453377 -0.21667853 0.1602557 0.020439096 -0.010537443 0.14900424
0.12353705 0.045065727 0.20531529 0.16047144 -0.086403675 -0.11109924 0.19759138 0.0036194294
-0.022677897 0.06485613 -0.031917334 -0.044656284 -0.01904027 0.20633307 -0.0055712787 0.056399465
-0.1267877 0.02639823 -0.076724 0.05003836 0.31544557 -0.029665358 0.3879897 0.13634354
-0.037913326 -0.11789598 -0.1074584 -0.02158031 0.09712354 0.18217245 -0.087810375 0.03239965

bias_ih_l1 f4 [256]
00000000: 8614 92bd f71c ea3d ef39 96bd b5f8 5abb
00000010: 9301 a7bd 6af2 373e 027b 893c 384e 7ebd
00000020: 1e0f 07bd 9e4e 133e d703 023e cefe dfbd
00000030: f862 163e f759 183e 82ee d23d e7f3 00be
00000040: f114 4f3e 9834 e7bc e2a6 d03d c93b 4fbd
00000050: fb66 96bd 1ea1 123d abc8 fa3d 72af 2d3d
00000060: 93d5 bf3d 8d3e 15be e1dd 8abd e58d 823c
00000070: 66e5 cdbb baed 6d3e d559 203e 67e3 813d
00000080: 6918 56bd 47d1 923d 82f1 1a3d 6b17 9fbd
00000090: 57d8 7dbd 084f bfbd fa7c b03d 7efc bc3c
000000a0: 4f51 89bd 8af3 433d 5c85 16bd d021 823d
000000b0: a501 b93c 34ef 3f3d 48f7 b93c c31a b4bc
000000c0: 4180 2b3e 8903 99bd 4936 b4bd 0307 173d
000000d0: 2591 f7bd 657b b4bd 1527 76bc 42ac 0a3e
000000e0: 3762 cabc d504 0b3d 146e 48bc 3297 c63c
000000f0: 44fe 54bd a228 893d 8264 773b 0666 3abd
00000100: 4011 5c3e cb71 2a3c 91f2 2f3e b809 4f3e
00000110: 22fc 943d 49fd 383e 61cd 8e3e 65db e73d
00000120: 28a9 2c3e 9d4e 5b3e a394 353e 3098 5a3e
00000130: 8042 453d 7330 993d 3d27 343e c5f2 9c3d
00000140: b72c 3bbd e135 953e fd80 0f3e c769 283c
00000150: b044 223e 4850 323d 09bf 153e 4741 983e
00000160: 7a4a 383d eac0 843e 4804 403e 76b0 bb3c
00000170: faee ae3d 9c8e e43d 61e6 8b3d b65d 8b3e
00000180: 5307 b8ba 8200 313d a3d1 863d 18c9 de3d
00000190: 328b f73d fbab 1f3e 22a6 7e3e df6e da3d
000001a0: 059f 1b3e b94b 7d3e 1fa6 6a3d 7dd9 803e
000001b0: fa49 973d f957 0d3e 2296 313e 5a95 ab3e
000001c0: 4f9e 813e e4a8 833e 1ec8 503e d5bd 093e
000001d0: 7e88 a33e 4891 51bc c76d ab3c 4336 483e
000001e0: e587 8b3e a38d c73b 5ca1 1c3d 8c28 183e
000001f0: 3b28 2f3e e764 173d b3ba 4d3e a9af 553e
00000200: 955a 853d 5300 9fbd 3b7f c2bc d08e 993d
00000210: e4de d53d 7c29 353d 5f20 073d 65e1 933d
00000220: 29c7 673d fec9 a73d a86c 973d f489 1b3e
00000230: 147a 0ebd 7dcf d93d 2326 773d bc91 a9bd
00000240: edeb adbd e834 babd a33f c23d 8466 f23d
00000250: fc37 a03d 083d eb3c 8bb0 b13d eee5 a5bd
00000260: f5f2 d33d a564 23bd 49a0 99bd 5f47 b5bd
00000270: 6f27 ee3d f624 42bd a7c8 d6bd 7663 ec3d
00000280: c26d 223d 5ad4 1d3d 7b7b 98bd 4562 d63d
00000290: b115 3e3d 5f43 3fbc 2dae 3bbe a049 a53d
000002a0: 9262 0fbe b2ea 2d3d 4cc2 a73c 38ed 213e
000002b0: 668e 01bd 70af 7bbd ed86 063e 1628 033e
000002c0: 9024 24bd 4285 05bc 14bd 1b3d bfde e23c
000002d0: 67ad 6ebd 74ff 293d 75fe d53d fde8 2bbc
000002e0: 36b4 0abd c6cb 92bd d112 45bd 43cd 9f3d
000002f0: 9e74 cfbc 8a14 4abd a300 87bc 29d6 c2bd
00000300: cb4a e93d be1b 303e fd12 363e 93a8 293e
00000310: a266 413e 4bea 193e a878 de3d 4b4d 8e3e
00000320: 5ca8 3f3e 158d 563e d881 4d3d 20c6 e33d
00000330: f700 403e 2d3e 753e 4004 123e c5dc 003e
00000340: 11f4 553d 99fb 633d c18d 983e caf4 993d
00000350: e748 1c3e 7055 763e e964 683e 194f 5b3e
00000360: 0e96 b43e a5a3 3b3e 42c1 b43e 7e16 0a3d
00000370: 7041 8a3e 5a98 6a3e 1eeb 443e 2cdc 953e
00000380: 5aaa da3d 4579 3a3e c894 803e 71ff 7a3e
00000390: 73b4 0a3e 5c73 e13c a729 ddbd cd6d 4e3e
000003a0: 9814 553d 8712 7d3e 2d32 bfbc ffe7 8a3e
000003b0: 1fea a83e cde7 5d3e 7999 c8bd 8a10 923e
000003c0: 2b9c 333e 10d5 6e3e e793 1b3e a8a0 893e
000003d0: 72b5 ab3d 5847 293d 0bb2 013e 6929 313e
000003e0: 853a 223e f464 b33e 77a7 083e a393 b13d
000003f0: 5eb2 b03d 61cd 843e 118e 2d3e d8e8 633e
-0.07132821 0.11431306 -0.07335269 -0.00334124 -0.08154597 0.17963567 0.016782288 -0.062086314
-0.0329734 0.14385459 0.12696777 -0.10937272 0.14686191 0.14878069 0.10299398 -0.12593041
0.20222832 -0.02822332 0.1018808 -0.050594125 -0.07343861 0.035798185 0.12245306 0.042403646
0.09366908 -0.14574642 -0.06780601 0.015936801 -0.00628345 0.23235217 0.15659268 0.06342202
-0.052269373 0.07168823 0.037827976 -0.077681385 -0.061973896 -0.09341246 0.086175874 0.023069616
-0.067049615 0.04783968 -0.036748275 0.063541055 0.022583792 0.04685898 0.02270092 -0.021985417
0.16748144 -0.074713774 -0.087994166 0.03687192 -0.12088231 -0.08812598 -0.015023966 0.13542274
-0.024705036 0.033940155 -0.012233276 0.024242017 -0.0520003 0.06697203 0.0037749116 -0.045507453
0.21490955 0.010403107 0.17182375 0.20218551 0.07274653 0.1806537 0.27891067 0.11321143
0.16861403 0.21416707 0.17732482 0.21347117 0.048159122 0.07479944 0.17593093 0.07663492
-0.04569694 0.2914267 0.14014049 0.0102791255 0.15846515 0.043533593 0.14623655 0.29737303
0.0449929 0.25928432 0.18751633 0.022911292 0.08541675 0.11160013 0.06831051 0.27219933
-0.0014040269 0.043213375 0.06582954 0.10878199 0.12087096 0.15592949 0.24868062 0.10665678
0.1519738 0.24735917 0.05728733 0.2516593 0.07387157 0.1380309 0.17342427 0.33512384
0.25316092 0.2571479 0.20388839 0.13451321 0.31940073 -0.012790985 0.02092637 0.19551949
0.27252117 0.0060898825 0.03823982 0.14859217 0.1710519 0.036961462 0.20090751 0.2086779
0.06511418 -0.07763734 -0.023742309 0.074979424 0.10442904 0.044229016 0.032989856 0.07220725
0.05658642 0.08192824 0.073937714 0.15189344 -0.03478439 0.106352784 0.060339104 -0.0827975
-0.08492265 -0.09092122 0.09484794 0.118359596 0.07823178 0.028715625 0.08676251 -0.08100496
0.10349075 -0.039890904 -0.07501275 -0.088515036 0.11628615 -0.04739853 -0.1048749 0.11542408
0.039655454 0.038532592 -0.07445427 0.10467962 0.046407405 -0.011673777 -0.18328162 0.080706835
-0.14002445 0.04246015 0.02047839 0.15813148 -0.031629942 -0.061446607 0.13137408 0.1280826
-0.04007393 -0.008149447 0.038022116 0.027694104 -0.058270838 0.041503385 0.104489245 -0.01049256
-0.03386327 -0.07167773 -0.048113648 0.078028224 -0.025324162 -0.049335994 -0.016479796 -0.09513504
0.11391219 0.17198083 0.17780681 0.16568212 0.18886808 0.15030782 0.10862857 0.27793345
0.18716568 0.20952256 0.050172657 0.11121774 0.18750368 0.239495 0.14259434 0.12584217
0.052234713 0.055659864 0.2979565 0.07517393 0.15262185 0.2405603 0.22694744 0.21416892
0.35270733 0.18324144 0.35303694 0.033712856 0.2700305 0.2290968 0.19230315 0.2926954
0.10677023 0.18210323 0.2511351 0.24511506 0.13545398 0.027520828 -0.1079896 0.20159073
0.052021593 0.24714099 -0.023339355 0.27130124 0.3299112 0.21670456 -0.097948976 0.28528243
0.17540042 0.23323464 0.15193139 0.26880383 0.08384217 0.041327804 0.12665574 0.17300953
0.15842636 0.3503796 0.13345133 0.086707376 0.08627771 0.25937942 0.16948725 0.22256792

bias_hh_l1 f4 [256]
00000000: 5bfe d43c 0e1e df3d 65f8 5d3c 1484 c03c
00000010: 5925 66bd 7fda ad3c d573 2ebe a4b7 8abd
00000020: d34b 29be 8098 28bc 601c d83d 6af4 d4bc
00000030: ba5b efbb d943 8b3d 0f7e cf3c f310 623d
00000040: 75a7 863d 116b edbd 0344 d83d a2e6 bfbd
00000050: 6d1e 9b3d 3865 b03d 6c6f c63d 752d 643c
00000060: c560 323e 109a fcbd 9660 acbd a0b9 07bd
00000070: 32bf 7dbc 6adc 7a3e 16c5 52bd f765 33be
00000080: ed5f a73d 2374 d5bb 37ad 07bc f540 00bb
00000090: b3bf 943c 6fd8 d8bd 11bf 16bc 6ffd db3d
000000a0: 9465 063e a61a ae3d 26d2 e4bd bac1 183e
000000b0: 8a3f 1d3d 64b2 543e 867c 843d 7664 38be
000000c0: f2e2 713d fe8b 4cbd 89f5 69bd 39e5 0f3d
000000d0: c40a 87bd 4fa8 e8bd f04f 1cbd 1251 523d
000000e0: 24ad 92bc 0f44 a93d 2dd1 ee3c 2598 013e
000000f0: 45f8 6abd 9799 c9bd 234a ddbd b018 86bd
00000100: a445 233e df5a 2f3c 76d4 df3c 815c 8e3e
00000110: 6776 273e 253f e43c 283d 833e 5da1 883e
00000120: cacd 4c3e a9b0 773e a215 263e a250 4f3e
00000130: a7bb 423e 527d 1e3e f352 093e eedb 513e
00000140: 8f36 6fbd 0ff9 2e3e d115 603e b379 313e
00000150: ef5a 8e3e 2981 c83d 601d da3d 4ad2 893e
00000160: e0a5 d33d b41d 4e3e eec0 6e3e c0a5 b53d
00000170: 0c3a 483e 57b0 d93d be56 3f3e 3894 713e
00000180: dd07 f93d 197b 8e3d da2a 203e 9fd4 873e
00000190: 9beb 423e 0edb 173e 7ed0 3f3d 73d0 243e
000001a0: e400 1a3e 05fd b23d 8453 733d a575 723e
000001b0: 1e93 2e3e 77cc 4f3d 2a42 873e 0eaf 4b3e
000001c0: 6677 483e d27e 6e3e b5d1 7a3e 1abc 4b3e
000001d0: a31e 5f3e 65c3 2d3d b892 bfbc 61a2 973e
000001e0: 79d8 4f3e 234a 5c3e 8136 0b3e 142e 4f3e
000001f0: 511b a03d 108a 7cbd 7bbe 963e 8cd4 79bc
00000200: 2fd4 86bd b933 6c3d 3420 febd 8fef 603d
00000210: bec8 c43d 6979 c63a 7c93 41bc db33 623e
00000220: dcf3 ddbd ba29 18b9 f0e8 193e ce1a 303e
00000230: a87f a1bd cba3 a2bd 12a6 b8bd acd2 783d
00000240: ea26 16be 82af 07bd 73d9 f4bc be23 a4bd
00000250: 3498 cd3d 7b43 c7bd 174d 593d 4653 01be
00000260: 5843 0b3e 703b b2bd 04c1 8e3c 92aa 3bbe
00000270: 0252 7abd 6f78 563d 1660 c43a 8b89 c83b
00000280: 7882 b6bb 9574 3fbd 55bf c5bd 42f9 11ba
00000290: 6f6f 3f3d 220c 173b 3ab3 f8bd 110e 933e
000002a0: 2f3a 77bd cd24 54bd 6a0e bbbd 0a94 4e3e
000002b0: c7b1 473d 9152 123e 3a31 1f3d e4a4 9e3d
000002c0: c0c7 483c 96c6 a2bd eaa6 263d ab8f ee3d
000002d0: 9bac 90bd cdb3 083e 9e1b d8bd dec6 29be
000002e0: 008b 923d d440 da3d 3f9d 9abc 8bb9 e23d
000002f0: 6cab ccbd df96 623d 0b23 debd cf90 3c3d
00000300: 6505 9e3e 9b5e db3d e121 2f3e bfb6 383e
00000310: dd65 03bd 80ff 1b3d 05cb 153e b5e7 023e
00000320: db92 4f3e c13c b13d 46e5 0c3e a542 f03b
00000330: 239f 543e c327 243d 29b1 453e 9085 953e
00000340: 122e 363e b66d cf3d ee79 043e 41d2 9dbc
00000350: abbf a13d 19ab 3e3e a5da 0e3e b845 d63e
00000360: b819 303e 6a6b 7c3e 5c78 b53e 4fad df3d
00000370: 6298 5f3e 7e70 383e cb00 8c3e 4c03 083e
00000380: ff59 623d e098 993d 66c5 743e 9831 373e
00000390: d99b 473e 3f84 963c 57fb 7abd 6ae1 563e
000003a0: a03c 543d 0559 6a3e 94d7 f7bc ba24 0f3e
000003b0: 46a7 393e 6b00 b13e 7ca6 87bd 4670 483e
000003c0: c638 a33e 175a 4d3e 8259 0e3e 84db 943e
000003d0: 6323 70bc 0a80 ccbb 86e6 fc3c 3bec 363d
000003e0: 82b7 043e 7499 1a3e 482c e03d db4a 0d3e
000003f0: e19c 953e a876 503e 9507 9c3e 8cd6 a03e
0.026000192 0.10894404 0.013547991 0.02350048 -0.05618796 0.021222351 -0.17036374 -0.06773308
-0.16532831 -0.010290265 0.10552287 -0.025995452 -0.007304636 0.0680005 0.025328664 0.055191945
0.06574909 -0.11592687 0.10559847 -0.093701616 0.07574163 0.08613056 0.09689221 0.013926853
0.17419727 -0.123340726 -0.0841686 -0.03313601 -0.015487479 0.24498144 -0.051457487 -0.17519365
0.08172593 -0.0065140887 -0.008281044 -0.0019569967 0.018157816 -0.105881564 -0.009200827 0.10741698
0.13124686 0.085011765 -0.11172895 0.14917651 0.038390674 0.20771176 0.064690635 -0.18007073
0.059054323 -0.049938194 -0.057118926 0.035130713 -0.0659385 -0.11360227 -0.03816217 0.051346846
-0.017904826 0.08264934 0.029152477 0.12655695 -0.057365675 -0.09843748 -0.10805156 -0.065476775
0.15944535 0.010702818 0.027322989 0.2780495 0.1635376 0.02786214 0.25632596 0.2668561
0.20000377 0.24188484 0.1621919 0.20245603 0.19016896 0.15477493 0.13410549 0.20494053
-0.05840164 0.17087196 0.21883322 0.17331581 0.27803752 0.0979026 0.10650134 0.2691825
0.103343725 0.20128518 0.23315784 0.08869505 0.19553393 0.10629337 0.18685433 0.23591697
0.12159703 0.06957073 0.15641347 0.26529405 0.19035189 0.14829656 0.046829693 0.16095142
0.15039402 0.08739666 0.05940582 0.2367769 0.17048308 0.050732102 0.26417667 0.19890997
0.19576797 0.23290566 0.2449406 0.19895974 0.2178903 0.04242267 -0.02338539 0.29616073
0.20297422 0.21512656 0.1359501 0.20232421 0.0781771 -0.061655104 0.294422 -0.015248429
-0.065834396 0.057666514 -0.12408486 0.05491596 0.09608601 0.0015142384 -0.011814948 0.22090094
-0.10837528 -0.00014511394 0.15030265 0.17197725 -0.078856766 -0.07941397 -0.090160504 0.060747787
-0.14663282 -0.03312636 -0.029888844 -0.0801463 0.10038796 -0.09729668 0.053052034 -0.12629423
0.13599908 -0.08702743 0.017426021 -0.18326786 -0.061113365 0.05236095 0.0014982249 0.006119912
-0.0055697523 -0.04674204 -0.09655634 -0.00055684533 0.04673713 0.0023048003 -0.1214356 0.2872167
-0.060358223 -0.05179291 -0.09133609 0.2017366 0.048753526 0.14289309 0.038865305 0.07746294
0.012254655 -0.079480335 0.040686525 0.11648496 -0.07064172 0.13349839 -0.105521426 -0.16579768
0.071554184 0.10656896 -0.018873809 0.11070546 -0.09993634 0.055319663 -0.10846528 0.046036538
0.3086349 0.10711404 0.17102768 0.18038462 -0.032079566 0.03808546 0.14628227 0.12783702
0.20270865 0.08654166 0.13759336 0.0073321634 0.20763831 0.040076982 0.19305862 0.29203463
0.17791012 0.101283476 0.12937137 -0.019265296 0.07897886 0.18619956 0.13950594 0.41850066
0.17197311 0.2465035 0.3544339 0.10921728 0.21835473 0.18011662 0.27344355 0.13282508
0.05526161 0.07499862 0.23903427 0.17890012 0.19493045 0.018373607 -0.061274853 0.20984426
0.05181563 0.22885521 -0.030254163 0.13978854 0.18130216 0.3457063 -0.06623551 0.19574079
0.31879252 0.20053898 0.13901332 0.29073727 -0.014656874 -0.0062408494 0.03087164 0.04465888
0.12960628 0.150976 0.10945946 0.13798086 0.29221252 0.20357764 0.30474535 0.31413686
